…
 l2                     | 0.0         
 lr                     | 0.001       
 main_metric            |             
 num_neg                | 128         
 num_workers            | 5           
 optimizer              | Adam        
 random_seed            | 0           
 save_final_results     | 0           
 test_all               | 1           
 topk                   | 5,10,20,50  
=======================================
INFO:root:Device: cuda
INFO:root:Load corpus from data/MovieLens_1M/SeqReader.pkl
INFO:root:#params: 454310
INFO:root:FuXi(
  (embedding_module): LocalEmbeddingModule(
    (_item_emb): Embedding(3954, 50, padding_idx=0)
  )
  (interaction_module): DotProductSimilarity()
  (input_preproc): LearnablePositionalEmbeddingInputFeaturesPreprocessor(
    (_pos_emb): Embedding(201, 50)
    (_emb_dropout): Dropout(p=0.2, inplace=False)
  )
  (output_postproc): L2NormEmbeddingPostprocessor()
  (encoder): FuXi(
    (_ndp_module): DotProductSimilarity()
    (_embedding_module): LocalEmbeddingModule(
      (_item_emb): Embedding(3954, 50, padding_idx=0)
    )
    (_input_features_preproc): LearnablePositionalEmbeddingInputFeaturesPreprocessor(
      (_pos_emb): Embedding(201, 50)
      (_emb_dropout): Dropout(p=0.2, inplace=False)
    )
    (_output_postproc): L2NormEmbeddingPostprocessor()
    (_fuxi): FuXiJagged(
      (_attention_layers): ModuleList(
        (0-1): 2 x FuXiBlockJagged(
          (_rel_attn_bias): SeperatedRelativeBucketedTimeAndPositionBasedBias()
          (_mffn): MultistageFeedforwardNeuralNetwork(
            (lin0): Linear(in_features=768, out_features=50, bias=True)
            (lin1): Linear(in_features=50, out_features=50, bias=False)
            (lin2): Linear(in_features=50, out_features=50, bias=False)
            (lin3): Linear(in_features=50, out_features=50, bias=False)
          )
        )
      )
    )
  )
)
INFO:root:Test Before Training: (HR@5:0.0018,NDCG@5:0.0012,HR@10:0.0023,NDCG@10:0.0014,HR@20:0.0041,NDCG@20:0.0019,HR@50:0.0134,NDCG@50:0.0037)
INFO:root:Namespace(model_name='fuxi', model_mode='')
INFO:root:--------------------------------------------- BEGIN: 2025-11-30 15:37:28 ---------------------------------------------
…
 l2                     | 0.0         
 lr                     | 0.001       
 main_metric            |             
 num_neg                | 128         
 num_workers            | 5           
 optimizer              | Adam        
 random_seed            | 0           
 save_final_results     | 0           
 test_all               | 1           
 topk                   | 5,10,20,50  
=======================================
INFO:root:Device: cuda
INFO:root:Load corpus from data/MovieLens_1M/SeqReader.pkl
INFO:root:#params: 268910
INFO:root:FuXi(
  (embedding_module): LocalEmbeddingModule(
    (_item_emb): Embedding(3954, 50, padding_idx=0)
  )
  (interaction_module): DotProductSimilarity()
  (input_preproc): LearnablePositionalEmbeddingInputFeaturesPreprocessor(
    (_pos_emb): Embedding(201, 50)
    (_emb_dropout): Dropout(p=0.2, inplace=False)
  )
  (output_postproc): L2NormEmbeddingPostprocessor()
  (encoder): FuXi(
    (_ndp_module): DotProductSimilarity()
    (_embedding_module): LocalEmbeddingModule(
      (_item_emb): Embedding(3954, 50, padding_idx=0)
    )
    (_input_features_preproc): LearnablePositionalEmbeddingInputFeaturesPreprocessor(
      (_pos_emb): Embedding(201, 50)
      (_emb_dropout): Dropout(p=0.2, inplace=False)
    )
    (_output_postproc): L2NormEmbeddingPostprocessor()
    (_fuxi): FuXiJagged(
      (_attention_layers): ModuleList(
        (0-1): 2 x FuXiBlockJagged(
          (_rel_attn_bias): SeperatedRelativeBucketedTimeAndPositionBasedBias()
          (_mffn): MultistageFeedforwardNeuralNetwork(
            (lin0): Linear(in_features=150, out_features=50, bias=True)
            (lin1): Linear(in_features=50, out_features=50, bias=False)
            (lin2): Linear(in_features=50, out_features=50, bias=False)
            (lin3): Linear(in_features=50, out_features=50, bias=False)
          )
        )
      )
    )
  )
)
INFO:root:Test Before Training: (HR@5:0.0015,NDCG@5:0.0009,HR@10:0.0033,NDCG@10:0.0015,HR@20:0.0053,NDCG@20:0.0020,HR@50:0.0126,NDCG@50:0.0034)
INFO:root:Load model from /mnt/e/collegeitem/third1/machinelearning/Fuxi-alpha-in-ReChorus/models_saved/fuxi_movielens_1M_base.pt
INFO:root:
Dev  After Training: (HR@5:0.2303,NDCG@5:0.1587,HR@10:0.3363,NDCG@10:0.1929,HR@20:0.4603,NDCG@20:0.2243,HR@50:0.6296,NDCG@50:0.2580)
…
