…
 num_heads          | 4                   
 num_layers         | 2                   
 num_neg            | 1                   
 num_workers        | 5                   
 optimizer          | Adam                
 random_seed        | 0                   
 save_final_results | 0                   
 test_all           | 1                   
 time_max           | 512                 
 topk               | 5,10,20,50          
===========================================
INFO:root:Device: cuda
INFO:root:Load corpus from data/Grocery_and_Gourmet_Food/SeqReader.pkl
INFO:root:#params: 2942400
INFO:root:TiSASRec(
  (i_embeddings): Embedding(8714, 240)
  (p_k_embeddings): Embedding(51, 240)
  (p_v_embeddings): Embedding(51, 240)
  (t_k_embeddings): Embedding(513, 240)
  (t_v_embeddings): Embedding(513, 240)
  (transformer_block): ModuleList(
    (0-1): 2 x TimeIntervalTransformerLayer(
      (masked_attn_head): TimeIntervalMultiHeadAttention(
        (v_linear): Linear(in_features=240, out_features=240, bias=True)
        (k_linear): Linear(in_features=240, out_features=240, bias=True)
        (q_linear): Linear(in_features=240, out_features=240, bias=True)
      )
      (layer_norm1): LayerNorm((240,), eps=1e-05, elementwise_affine=True)
      (dropout1): Dropout(p=0.1, inplace=False)
      (linear1): Linear(in_features=240, out_features=240, bias=True)
      (linear2): Linear(in_features=240, out_features=240, bias=True)
      (layer_norm2): LayerNorm((240,), eps=1e-05, elementwise_affine=True)
      (dropout2): Dropout(p=0.1, inplace=False)
    )
  )
)
INFO:root:Test Before Training: (HR@5:0.0005,NDCG@5:0.0002,HR@10:0.0013,NDCG@10:0.0005,HR@20:0.0025,NDCG@20:0.0008,HR@50:0.0063,NDCG@50:0.0015)
INFO:root:Load model from /content/Fuxi-alpha-in-ReChorus/models_saved/TiSASRec_grocery_layers_2.pt
INFO:root:
Dev  After Training: (HR@5:0.0347,NDCG@5:0.0222,HR@10:0.0550,NDCG@10:0.0287,HR@20:0.0860,NDCG@20:0.0365,HR@50:0.1578,NDCG@50:0.0506)
…
