…
 main_metric            |                     
 num_neg                | 1                   
 num_workers            | 5                   
 optimizer              | Adam                
 random_seed            | 0                   
 save_final_results     | 0                   
 test_all               | 0                   
 topk                   | 5,10,20,50          
===============================================
INFO:root:Device: cuda
INFO:root:Load corpus from data/Grocery_and_Gourmet_Food/SeqReader.pkl
INFO:root:#params: 2659060
INFO:root:FuXi(
  (embedding_module): LocalEmbeddingModule(
    (_item_emb): Embedding(8715, 240, padding_idx=0)
  )
  (interaction_module): DotProductSimilarity()
  (input_preproc): LearnablePositionalEmbeddingInputFeaturesPreprocessor(
    (_pos_emb): Embedding(21, 240)
    (_emb_dropout): Dropout(p=0, inplace=False)
  )
  (output_postproc): L2NormEmbeddingPostprocessor()
  (encoder): FuXi(
    (_ndp_module): DotProductSimilarity()
    (_embedding_module): LocalEmbeddingModule(
      (_item_emb): Embedding(8715, 240, padding_idx=0)
    )
    (_input_features_preproc): LearnablePositionalEmbeddingInputFeaturesPreprocessor(
      (_pos_emb): Embedding(21, 240)
      (_emb_dropout): Dropout(p=0, inplace=False)
    )
    (_output_postproc): L2NormEmbeddingPostprocessor()
    (_fuxi): FuXiJagged(
      (_attention_layers): ModuleList(
        (0-1): 2 x FuXiBlockJagged(
          (_rel_attn_bias): SeperatedRelativeBucketedTimeAndPositionBasedBias()
          (_mffn): MultistageFeedforwardNeuralNetwork(
            (lin0): Linear(in_features=150, out_features=240, bias=True)
            (lin1): Linear(in_features=240, out_features=240, bias=False)
            (lin2): Linear(in_features=240, out_features=240, bias=False)
            (lin3): Linear(in_features=240, out_features=240, bias=False)
          )
        )
      )
    )
  )
)
INFO:root:Namespace(model_name='fuxi', model_mode='')
INFO:root:--------------------------------------------- BEGIN: 2025-11-29 15:56:59 ---------------------------------------------
INFO:root:
===============================================
 Arguments              | Values               
===============================================
…
 l2                     | 0.0         
 lr                     | 0.001       
 main_metric            |             
 num_neg                | 128         
 num_workers            | 5           
 optimizer              | Adam        
 random_seed            | 0           
 save_final_results     | 0           
 test_all               | 0           
 topk                   | 5,10,20,50  
=======================================
INFO:root:Device: cuda
INFO:root:Load corpus from data/MovieLens_1M/SeqReader.pkl
INFO:root:#params: 268910
INFO:root:FuXi(
  (embedding_module): LocalEmbeddingModule(
    (_item_emb): Embedding(3954, 50, padding_idx=0)
  )
  (interaction_module): DotProductSimilarity()
  (input_preproc): LearnablePositionalEmbeddingInputFeaturesPreprocessor(
    (_pos_emb): Embedding(201, 50)
    (_emb_dropout): Dropout(p=0.2, inplace=False)
  )
  (output_postproc): L2NormEmbeddingPostprocessor()
  (encoder): FuXi(
    (_ndp_module): DotProductSimilarity()
    (_embedding_module): LocalEmbeddingModule(
      (_item_emb): Embedding(3954, 50, padding_idx=0)
    )
    (_input_features_preproc): LearnablePositionalEmbeddingInputFeaturesPreprocessor(
      (_pos_emb): Embedding(201, 50)
      (_emb_dropout): Dropout(p=0.2, inplace=False)
    )
    (_output_postproc): L2NormEmbeddingPostprocessor()
    (_fuxi): FuXiJagged(
      (_attention_layers): ModuleList(
        (0-1): 2 x FuXiBlockJagged(
          (_rel_attn_bias): SeperatedRelativeBucketedTimeAndPositionBasedBias()
          (_mffn): MultistageFeedforwardNeuralNetwork(
            (lin0): Linear(in_features=150, out_features=50, bias=True)
            (lin1): Linear(in_features=50, out_features=50, bias=False)
            (lin2): Linear(in_features=50, out_features=50, bias=False)
            (lin3): Linear(in_features=50, out_features=50, bias=False)
          )
        )
      )
    )
  )
)
INFO:root:Test Before Training: (HR@5:0.0427,NDCG@5:0.0253,HR@10:0.0944,NDCG@10:0.0419,HR@20:0.1930,NDCG@20:0.0664,HR@50:0.4997,NDCG@50:0.1263)
INFO:root:Optimizer: Adam
INFO:root:Epoch 1     loss=0.4281 [347.4 s]	dev=(HR@5:0.6008,NDCG@5:0.4357) [0.9 s] *
INFO:root:Epoch 2     loss=0.3200 [353.5 s]	dev=(HR@5:0.6985,NDCG@5:0.5330) [0.9 s] *
…
